Abalone/Abalone_NN_Cyclic_LR_Best_Model.pth (torch, 78264 bytes, 5 tensors)

fc1.weight f4 [128, 16]
0	0x3dee8a48	0.11647469
1	0xbe4b3196	-0.19843134
2	0xbcc652d0	-0.02420941
3	0x3e644e0a	0.22295395
4	0xbdef394c	-0.116808504
5	0x3df2e3f4	0.11859885
6	0x3d132fb8	0.03593418
7	0xbdaddea4	-0.08489731
8	0xbe688b4c	-0.22709388
9	0xbe582fb2	-0.21111944
10	0xbe0da228	-0.13831389
11	0x3cd68430	0.026186079
12	0x3e0d07c2	0.1377249
13	0x3d1834b0	0.03715962
14	0x3e4349c8	0.19071114
15	0x3deaaa68	0.11458284
16	0xbe22c888	-0.15896809
17	0xbd484f00	-0.048903465
18	0x3e5be554	0.214742
19	0x3e1b9670	0.15194106
20	0xbc9fed80	-0.019522429
21	0x3e688ff4	0.22711164
22	0xbe008742	-0.12551597
23	0xbe0175f0	-0.12642646
24	0x3dd1aa6c	0.102375835
25	0x3e65d2e2	0.22443727
26	0xbe2ae87e	-0.16690251
27	0x3dc9e0ec	0.098573536
28	0x3e26c6a4	0.16286713
29	0xbe4790b4	-0.19488794
30	0x3d045738	0.03230974
31	0xbd7fa3d8	-0.062412113
32	0xbe2e0c94	-0.16996986
33	0xbd2da100	-0.04238987
34	0xbcc2d780	-0.023784399
35	0x3e748e84	0.2388249
36	0x3d35f0b0	0.04441899
37	0xbd0978a8	-0.033562332
38	0xbce6c060	-0.028167903
39	0x3dd39e1c	0.10332891
40	0xbe037014	-0.12835723
41	0x3d66b0f0	0.056321084
42	0x3d845d58	0.064631164
43	0xbe70697a	-0.23477736
44	0xbc7a0c00	-0.01526165
45	0xbc66c660	-0.014085382
46	0x3e008d8a	0.12553993
47	0x3e5b9656	0.21444067
48	0xbe2a40ec	-0.16626328
49	0x3e3f9398	0.18708646
50	0x3e064d66	0.13115463
51	0x3e3bfbee	0.18357822
52	0xbd4d8088	-0.050171405
53	0x3e78f90c	0.24313754
54	0xbe7a81d4	-0.24463588
55	0xbe3687e8	-0.17825282
56	0xbdbc8dac	-0.09206709
57	0xbe3d2ebe	-0.18474862
58	0x3d067c50	0.032833397
59	0x3d544560	0.051823974
60	0xbdcfad14	-0.10140434
61	0xbe71588c	-0.23568934
62	0xbd245230	-0.040117443
63	0xbdc41790	-0.09574807
64	0x3e4b0e5e	0.198297
65	0x3df2d688	0.11857325
66	0x3c9c0660	0.019046009
67	0xbcb3ef90	-0.021964818
68	0xbe0dd9ea	-0.13852659
69	0x3db858d4	0.090013176
70	0xbd71a8d8	-0.058998913
71	0xbd37f908	-0.04491523
72	0x3c11ad40	0.008891404
73	0xbe1232da	-0.14277211
74	0xbe060568	-0.13088
75	0xbc8edb60	-0.01743859
76	0x3e58be1c	0.21166271
77	0xbe0f0b1e	-0.13969085
78	0x3d912bcc	0.07088432
79	0xbd2e5c58	-0.042568535
80	0xbd3bf5d8	-0.04588875
81	0xbe2ad528	-0.16682875
82	0xbdf44bf4	-0.119285494
83	0x3cc25590	0.02372244
84	0x3c938cb0	0.018011421
85	0xbe093062	-0.13397363
86	0x3dabc84c	0.08387813
87	0xbe5440f8	-0.20727909
88	0xbe70b18e	-0.23505232
89	0x3d5e6720	0.054297566
90	0xbe663ea4	-0.22484833
91	0xbdf9b8c8	-0.12193447
92	0x3d965724	0.073408395
93	0x3d9b567c	0.07584855
94	0x3e6f06da	0.23342457
95	0xbe0d2d3e	-0.1378679
96	0x3d0751b0	0.033036888
97	0xbdf26db4	-0.118373305
98	0xbe4b8218	-0.19873846
99	0x3e7025a0	0.23451853
100	0x3dae8370	0.085211635
101	0x3de67268	0.1125229
102	0x3d57d1c0	0.052690268
103	0xbd9a4ee4	-0.075345784
104	0xbe33fd1a	-0.1757702
105	0x3dc28ad4	0.094991356
106	0xbe19c9ca	-0.15018383
107	0x3e44eb66	0.19230422
108	0x3e7a0bf0	0.24418616
109	0xbe237bbc	-0.1596517
110	0xbd990304	-0.07471278
111	0xbe2cebec	-0.16886872
112	0xbd0ec110	-0.034852087
113	0x3e0a97e8	0.1353451
114	0x3e3af4da	0.18257466
115	0x3e42393a	0.18967143
116	0xbda3215c	-0.07965347
117	0xbca5bb10	-0.0202308
118	0xbd90d018	-0.07070941
119	0xbc5d9160	-0.01352343
120	0x3e0733fa	0.13203421
121	0x3d29d260	0.041460395
122	0xbd97a418	-0.07404345
123	0x3e5764aa	0.21034494
124	0xbe3f26b0	-0.18667102
125	0xbdec59c4	-0.11540559
126	0xbd9a6bd8	-0.07540101
127	0x3de1b9f0	0.11021793
128	0x3e5f3e5c	0.21801132
129	0xbe0a4a48	-0.13504899
130	0x3e6c742a	0.23091188
131	0xbe074dfa	-0.1321334
132	0x3d7e4448	0.062076837
133	0xbc9f5c20	-0.019453108
134	0x3e218724	0.15774208
135	0x3e716768	0.23574603
136	0xbe4bf8f6	-0.1991919
137	0x3ba65a80	0.0050767064
138	0xbe2141d2	-0.15747765
139	0xbd737058	-0.05943331
140	0x3e141546	0.1446124
141	0xbd374ad0	-0.04474908
142	0x3d4d5dd0	0.050138295
143	0xbe50c206	-0.20386514
144	0xbccb8720	-0.024844706
145	0xbd87a5e0	-0.06623435
146	0xbd5e1fb8	-0.054229468
147	0x3e53cf94	0.20684654
148	0xbe220206	-0.15821084
149	0xbd44a948	-0.048013
150	0x3e1f0f62	0.15533212
151	0xbcdb0110	-0.026733905
152	0xbe4c525c	-0.19953293
153	0x3d9b8cf8	0.07595247
154	0xbdcad1c4	-0.09903291
155	0xbdbb6934	-0.09150925
156	0x3e15dd08	0.14635098
157	0x3e41d8b4	0.18930322
158	0xbe2c03fa	-0.16798392
159	0xbd99a8a0	-0.07502866
160	0xbd3901d8	-0.045167774
161	0x3e04df82	0.12975886
162	0xbcb39780	-0.021922827
163	0xbd72fb18	-0.059321493
164	0x3e1491ee	0.14508793
165	0xbe6164ce	-0.2201111
166	0xbcfd1880	-0.030895472
167	0x3c47dd40	0.012198746
168	0xbc812510	-0.015764743
169	0x3e322cfc	0.17399973
170	0x3e56c146	0.20972165
171	0xbe7ea9a2	-0.24869397
172	0xbc751e00	-0.014960766
173	0xbe00d3e0	-0.12580824
174	0xbe3e5858	-0.18588388
175	0xbe7c2b32	-0.24625853
176	0x3de71bd8	0.11284608
177	0x3dae69b4	0.08516255
178	0x3d9520c4	0.0728164
179	0xbe54e5be	-0.20790765
180	0x3e75166e	0.23934337
181	0xbd8df214	-0.06930938
182	0x3ccf41c0	0.025299907
183	0x3b799880	0.0038085282
184	0x3e13c0d2	0.14429024
185	0x3dbc646c	0.091988415
186	0xbe268800	-0.16262817
187	0x3dc7fa80	0.09764576
188	0x3d7f43f0	0.06232065
189	0x3e5b066c	0.21389169
190	0xbe3fc164	-0.18726116
191	0x3d6bb9f8	0.0575504
192	0x3e6a386e	0.22873089
193	0xbe6a5ff6	-0.22888169
194	0xbdf2bf78	-0.11852926
195	0xbe51791c	-0.20456356
196	0xbe2591f4	-0.16168958
197	0xbd812f18	-0.063078105
198	0x3c6b9b60	0.014380306
199	0x3e7c7b74	0.24656469
200	0xbdc2e378	-0.095160425
201	0xbdc7a8e8	-0.09749013
202	0x3e087f12	0.13329723
203	0x3db87a0c	0.090076536
204	0x3bf93dc0	0.007606238
205	0xbdfd314c	-0.12362918
206	0xbdf33ea4	-0.11877182
207	0xbe7fad7a	-0.2496852
208	0x3dabcd58	0.083887756
209	0xbdb40e5c	-0.08791801
210	0xbe0338b2	-0.12814596
211	0x3d2c2400	0.04202652
212	0x3e0506e4	0.1299091
213	0xbdb8e778	-0.09028524
214	0x3cf1fd60	0.029539764
215	0x3c4b78c0	0.012418926
216	0xbe2f8058	-0.17138803
217	0xbe016bc6	-0.12638769
218	0xbd904c78	-0.07045835
219	0x3e3a20f4	0.18176633
220	0x3be9c040	0.0071335137
221	0x3e76f16e	0.24115536
222	0xbc318120	-0.010834008
223	0x3d0612b0	0.032732666
224	0xbe5da250	-0.21643949
225	0x3e7f4d1e	0.24931762
226	0xbcf3c570	-0.029757231
227	0x3b587600	0.0033029318
228	0xbdadb2b8	-0.084813535
229	0xbd26ddb0	-0.04073876
230	0x3c024ac0	0.007952392
231	0x3e37afbc	0.17938131
232	0x3df93854	0.12168947
233	0xbe664c56	-0.22490057
234	0xbdc26134	-0.09491196
235	0x3e7efc54	0.24900943
236	0x3db349d0	0.08754313
237	0xbe2c9594	-0.16853935
238	0x3e4219d8	0.18955171
239	0xbe77d512	-0.24202374
240	0xbd3ca030	-0.046051204
241	0xbda3f0c4	-0.08004907
242	0xbe6195d6	-0.22029814
243	0x3e006212	0.12537411
244	0x3e032482	0.12806895
245	0xbd68f7e8	-0.056877047
246	0x3e36b0c0	0.17840862
247	0xbd6a9a50	-0.05727607
248	0x3e3adf5a	0.18249264
249	0x3e048762	0.1294227
250	0xbe60a21e	-0.21936843
251	0xbe67cb5e	-0.22636172
252	0x3e4104ce	0.18849489
253	0x3d71fd58	0.059079498
254	0x3d6128e0	0.054970622
255	0x3da2f56c	0.07956967

fc1.bias f4 [128]
0	0x3d671f68	0.056426436
1	0xbe01b4d4	-0.12666637
2	0x3dcf1898	0.10112113
3	0xbddc4e28	-0.107570946
4	0x3d2ef9d8	0.04271874
5	0xbdfb9270	-0.1228379
6	0xbd8bf4f8	-0.068338335
7	0x3e5dc5f6	0.21657547
8	0x3e227324	0.15864235
9	0xbdcdadb8	-0.100429
10	0x3db7c19c	0.08972475
11	0x3e2ea5b4	0.17055398
12	0xbdfc811c	-0.12329313
13	0x3e03b0dc	0.12860435
14	0xbd3e3ae0	-0.046442866
15	0x3e6bed0e	0.23039648
16	0x3e15282c	0.14566106
17	0xbda2f858	-0.07957524
18	0xbe481602	-0.19539645
19	0xbcaa1d90	-0.02076605
20	0xbd04b048	-0.032394677
21	0x3dc1075c	0.09425232
22	0xbdf884e4	-0.12134722
23	0x3e4ef8da	0.20212117
24	0xbe1a946e	-0.15095684
25	0x3d1940e0	0.037415385
26	0x3e70eff6	0.23529038
27	0x3c07fba0	0.008299738
28	0xbe782de6	-0.24236259
29	0xbe5efe9c	-0.21776813
30	0xbda914fc	-0.082559556
31	0xbdb09534	-0.08622208
32	0x3e5ebeee	0.21752521
33	0xbe47d638	-0.19515312
34	0x3e046cba	0.12932101
35	0x3d825f3c	0.06365821
36	0xbe249054	-0.16070682
37	0xbca73c50	-0.020414501
38	0x3e499b82	0.19688228
39	0x3e3dc190	0.1853087
40	0xbe2aa272	-0.1666353
41	0xbd88fab4	-0.06688443
42	0x3dd99744	0.10624555
43	0x3e5d6c74	0.21623403
44	0x3e7913fc	0.2432403
45	0xbdf1cfb0	-0.11807191
46	0x3e1d0ce6	0.15336952
47	0x3d386558	0.045018524
48	0x3e536a7e	0.20646092
49	0xbe1369fa	-0.14395896
50	0x3e38602a	0.18005434
51	0xbd246fd0	-0.040145695
52	0xbdbe8d30	-0.09304273
53	0x3e3fdd44	0.1873675
54	0x3e43d09a	0.19122544
55	0x3dd7b8d8	0.10533303
56	0xbd761798	-0.060081095
57	0xbd6858d0	-0.056725323
58	0x3e32a7e8	0.17446864
59	0xbe398c62	-0.18119958
60	0x3cd81c50	0.026380688
61	0x3e3efff8	0.18652332
62	0x3dc7acac	0.097497314
63	0xbd4e0ed0	-0.050307095
64	0x3e78ff2e	0.24316093
65	0xbd76ba30	-0.060236156
66	0x3e03f0a0	0.1288476
67	0x3e3b1f6a	0.18273702
68	0x3d24d6b0	0.040243804
69	0xbe024968	-0.12723315
70	0xbd91e9ac	-0.071246475
71	0x3dab1df8	0.083553255
72	0x3e0e8b26	0.13920268
73	0x3d720138	0.059083194
74	0x3d3dd8f0	0.046349466
75	0x3e4bac48	0.19889939
76	0xbcffae30	-0.031210989
77	0x3d83235c	0.06403229
78	0x3d29cbc8	0.041454107
79	0x3e0f1914	0.1397441
80	0xbdfc63b4	-0.12323704
81	0xbe53de8c	-0.20690364
82	0x3e6ace66	0.22930297
83	0x3dcb6e18	0.09933108
84	0xbd8c36b8	-0.06846374
85	0xbe128a1a	-0.14310494
86	0x3e166df4	0.14690381
87	0xbdac9bdc	-0.08428165
88	0xbdd5d6d4	-0.10441366
89	0x3d009e00	0.03140068
90	0xbe64729c	-0.22309345
91	0x3dd89610	0.10575497
92	0x3e4c0ee2	0.19927552
93	0x3e6d6ce2	0.23186067
94	0x3da6a4cc	0.08136901
95	0x3de5c030	0.112182975
96	0xbdcbc354	-0.09949365
97	0xbd3f71f8	-0.04673955
98	0x3e447dd2	0.19188622
99	0xbc49bec0	-0.012313545
100	0xbe055202	-0.13019565
101	0x3e76e87c	0.24112123
102	0x3d84a244	0.06476262
103	0xbe114b62	-0.14188913
104	0xbe05f198	-0.13080442
105	0xbe7f593e	-0.24936387
106	0x3e1e56a0	0.15462732
107	0x3ca750e0	0.020424306
108	0x3e568cde	0.20952174
109	0x3d564720	0.052313924
110	0xbd2c9638	-0.042135447
111	0x3e35a2b6	0.1773785
112	0xbe066854	-0.13125736
113	0xbe2fe838	-0.17178428
114	0xbe749eae	-0.23888656
115	0x3dc0b610	0.09409726
116	0x3ddaefdc	0.10690281
117	0x3e248d14	0.16069442
118	0xbe2d601e	-0.16931197
119	0xbdbfb958	-0.093615234
120	0xbdb24a60	-0.08705592
121	0x3e4aa3e8	0.19789088
122	0x3e36a3a0	0.17835855
123	0xbcfc52e0	-0.030801237
124	0xbcbedea0	-0.023299515
125	0xbe25f6f0	-0.1620748
126	0x3dbb2be4	0.09139231
127	0xbe3b5ea8	-0.18297827

fc2.weight f4 [128, 128]
0	0xbcbcccc8	-0.023046866
1	0xbced9b88	-0.029004827
2	0x3cccad08	0.024984851
3	0x3b340e60	0.0027474388
4	0x3d1629a6	0.036660813
5	0xbd7ea8b1	-0.062172595
6	0xbc61e668	-0.013787843
7	0xbdac6c42	-0.08419086
8	0xbcd217bc	-0.025646083
9	0x3d75f1b2	0.06004495
10	0xbbfabff0	-0.0076522753
11	0xbdacaa2e	-0.08430897
12	0x3d89fb47	0.067373805
13	0x3da47b5d	0.08031342
14	0x3cbf1d7c	0.023329489
15	0x3d077d96	0.033078752
16	0x3da9c10d	0.08288775
17	0x3c55bec0	0.013045967
18	0x3be35cb0	0.0069385394
19	0x3d909b19	0.070608325
20	0xbb378e20	-0.0028008297
21	0x3da0496d	0.07826505
22	0x3d6e659a	0.058202364
23	0x3d8c632d	0.06854854
24	0x3da7a219	0.081852145
25	0xbd753dbe	-0.059873335
26	0x3d48d33e	0.04902958
27	0x3ccb3998	0.024807736
28	0xbd35ab30	-0.04435271
29	0x3cbc42b8	0.022981033
30	0x3dac8a2f	0.08424794
31	0xbd850a57	-0.06496113
32	0x3d9d315b	0.076754294
33	0xbcd4908c	-0.025947832
34	0x3d8f266d	0.06989751
35	0xbd538df8	-0.051649064
36	0x3d7c1d2a	0.06155125
37	0xbdb1ffdc	-0.086913794
38	0x3d21d90a	0.039513625
39	0xbd3a664b	-0.04550771
40	0x3c379e58	0.011207186
41	0xbc463830	-0.012098357
42	0x3bdb6880	0.006695807
43	0x3ceae0f0	0.028671712
44	0x3daafc3d	0.08348892
45	0xbcc81be4	-0.024427362
46	0x3d527626	0.051382206
47	0xbcfb21c0	-0.030655742
48	0xbd949a84	-0.07256034
49	0xbc015a70	-0.007895097
50	0xbda4c8f2	-0.0804614
51	0x3d5da98e	0.054116778
52	0x3cb25b74	0.021772124
53	0xbd1c1ade	-0.03811156
54	0x3c8fceb4	0.017554618
55	0x3d68a692	0.05679948
56	0xbd63e082	-0.05563403
57	0x3d8c1cb3	0.068414114
58	0x3d23c1ce	0.03997975
59	0xbd9e2630	-0.077221274
60	0xbd72eaf8	-0.059306115
61	0x3d66f51a	0.05638609
62	0x3dacd523	0.0843909
63	0x3d3d082e	0.04615038
64	0x3cefedd0	0.029288203
65	0xbdb13738	-0.0865311
66	0x3bdc8570	0.006729774
67	0x3da6199f	0.081103556
68	0x3da87201	0.082248695
69	0x3ccfb8e0	0.02535671
70	0x3cd1f1a8	0.025627926
71	0x3d9b8079	0.075928636
72	0xbd80a90e	-0.062822446
73	0xbc8a38c0	-0.016872764
74	0x3d97f523	0.07419803
75	0xbcb15788	-0.021648183
76	0xbda617e6	-0.08110027
77	0x3d52731a	0.0513793
78	0xbd4471b8	-0.047960013
79	0xbcc9efc8	-0.02465047
80	0xbc4c15c8	-0.012456365
81	0x3d0c235a	0.0342134
82	0x3d4c9f16	0.049956404
83	0x3d0e045e	0.034672134
84	0xbd7398e5	-0.059471983
85	0xbdab27a9	-0.08357174
86	0x3ba7a300	0.0051158667
87	0xbce41f70	-0.027847022
88	0x3c8c4cd4	0.017126478
89	0x3d918bf9	0.07106776
90	0x3d108eb0	0.035292327
91	0xbd426065	-0.04745521
92	0x3db3fcb9	0.087884374
93	0xbd135004	-0.03596498
94	0x3d9c3d87	0.07628923
95	0xbd20d696	-0.039267145
96	0x3d830931	0.063982375
97	0xbccc12a8	-0.02491124
98	0x3c93997c	0.018017523
99	0xbc8c96b8	-0.017161712
100	0x3d87e531	0.06635512
101	0x3c146960	0.0090583265
102	0xbcc8e878	-0.024524912
103	0x3dab64f3	0.08368864
104	0xbd676f8f	-0.056502875
105	0xbd47b6d0	-0.048758328
106	0xbd8bec21	-0.068321474
107	0x3cbcc140	0.023041368
108	0xbdb10d8b	-0.08645161
109	0xbda9543f	-0.08268022
110	0xbcce259c	-0.025164418
111	0x3d0fe008	0.035125762
112	0xbc1884d8	-0.009309016
113	0x3c256138	0.01009398
114	0x3caaf100	0.02086687
115	0x3c6104d8	0.013734065
116	0x3d35326e	0.044237547
117	0x3dafdae9	0.08586676
118	0xbd7fd64c	-0.06246023
119	0xbcb10de4	-0.021613069
120	0xbc7d4778	-0.015458934
121	0xbc087e00	-0.008330822
122	0xbd2b5d64	-0.04183711
123	0x3cdcda28	0.026959494
124	0x3bac3500	0.0052553415
125	0xbd723c12	-0.05913932
126	0xbd6cb116	-0.05778607
127	0x3d982a45	0.07429937
128	0x3dab1f9b	0.08355638
129	0xbd9e6c18	-0.07735461
130	0x3d08bb30	0.03338164
131	0xbd81b922	-0.063341394
132	0xbd38809c	-0.045044526
133	0x3ca72b68	0.02040644
134	0x3d27d662	0.040975936
135	0x3c784cb0	0.0151550025
136	0x3ccd47b0	0.025058597
137	0xbdacdf60	-0.08441043
138	0xbd4e33bb	-0.050342303
139	0x3d83ba9d	0.06432078
140	0xbd40f8b0	-0.047112167
141	0xbd75b704	-0.05998899
142	0x3d11c9a8	0.035592705
143	0xbd3c48bd	-0.045967806
144	0x3c8a9450	0.016916424
145	0x3c0d5918	0.008627199
146	0x3b7ef160	0.0038901195
147	0xbc814324	-0.015779085
148	0x3d66c5e2	0.05634106
149	0x3d25ab0e	0.040446334
150	0xbbe77e80	-0.0070646405
151	0xbce640fe	-0.028107163
152	0x3ca72a54	0.020405926
153	0x3cff5210	0.03116706
154	0x3d8f6075	0.070008196
155	0x3cc17d34	0.023619272
156	0x39e2ca00	0.0004325658
157	0x3d7f0cd2	0.062268086
158	0xbcbaf2e8	-0.022820905
159	0x3d9c8ac5	0.07643656
160	0x3bb9d830	0.0056715235
161	0x3d11dc58	0.035610527
162	0xbd881152	-0.066439286
163	0x3c920d34	0.017828561
164	0xbcfe82ce	-0.031068232
165	0xbc2264b8	-0.0099117085
166	0x3d101d02	0.035183914
167	0xbd28c86c	-0.041206762
168	0xbd2399ab	-0.03994147
169	0xbd5a9f61	-0.05337465
170	0x3dac272f	0.08405911
171	0xbc8b230c	-0.016984485
172	0xbb34d860	-0.002759479
173	0xb9ceab00	-0.00039418787
174	0xbd405926	-0.04696002
175	0xbd02e8cc	-0.031960294
176	0xbc9c1c74	-0.019056536
177	0x3d1bcc56	0.038036667
178	0xbd297ea8	-0.041380554
179	0xbdb3b01e	-0.08773826
180	0xbd0b206d	-0.03396647
181	0xbc1c4a70	-0.009539232
182	0xbd4004d9	-0.046879623
183	0xbd2ec261	-0.042665843
184	0xbda07bbe	-0.07836102
185	0xbdb026b1	-0.0860113
186	0xbcf9699a	-0.030445863
187	0xbbc7d440	-0.0060983
188	0xbdac086a	-0.08400042
189	0x3d4e5e86	0.050383113
190	0x3d987f1f	0.074461214
191	0xbc84b904	-0.016201504
192	0xbd20ff9e	-0.039306276
193	0x3d98ec95	0.074669994
194	0x3d3e3b8e	0.046443515
195	0x3c8c4eb8	0.01712738
196	0xbd9d8b14	-0.07692543
197	0x3c48d338	0.01225739
198	0x3cac0fbc	0.021003596
199	0xbd175b0b	-0.03695206
200	0xbd8914a2	-0.066933885
201	0xbd71f7d0	-0.059074223
202	0x3cd39db0	0.025832027
203	0x3c85dba0	0.016340077
204	0xbd071295	-0.032976706
205	0xbd8ab0e4	-0.067720205
206	0x3d79fb36	0.06103059
207	0x3d32f8f2	0.043694444
208	0x3c9d81f8	0.019227013
209	0xbd17be5e	-0.037046783
210	0xbcb15f68	-0.021651939
211	0x3be59510	0.007006295
212	0xbdaa13c9	-0.08304555
213	0x3d8ee8ed	0.06978021
214	0x3d6ed932	0.058312602
215	0xbbd97ba0	-0.0066370517
216	0xbc8ff574	-0.017573096
217	0x3d5a8636	0.05335065
218	0x3da032c3	0.07822182
219	0xbc48c948	-0.01225502
220	0x3d5641b6	0.05230876
221	0x3daae1d5	0.08343855
222	0x3dab2dbf	0.08358335
223	0x3d818b35	0.0632538
224	0x3da6f713	0.081525944
225	0x3d32f646	0.043691896
226	0x3c765848	0.015035696
227	0x3cbc2324	0.022965975
228	0x3d33a0fa	0.04385469
229	0x3d54b06a	0.051926054
230	0xbdb13c06	-0.08654027
231	0xbd5bfcf2	-0.053708024
232	0x3d926ba9	0.07149441
233	0xbc7aa388	-0.015297778
234	0x3d9f8ccb	0.07790526
235	0xbc9e3264	-0.019311137
236	0xbc8ceb2c	-0.017201982
237	0x3a4fbd80	0.0007924661
238	0x3da0e3d7	0.07855957
239	0x3d95a2e9	0.07306463
240	0x3d97f879	0.07420439
241	0xbd03babd	-0.03216051
242	0xbcb7b64c	-0.022425793
243	0x3b3f4340	0.0029184371
244	0xbc735a88	-0.014853127
245	0xbd6a1d3c	-0.057156786
246	0xbc72b510	-0.0148136765
247	0x3d8c239b	0.06842729
248	0xbd5aedef	-0.053449567
249	0xbcbc35d0	-0.022974879
250	0x3d10ca5a	0.035349227
251	0xbd6642c0	-0.056216
252	0xbd0f6d5f	-0.035016414
253	0x3d39431a	0.04523001
254	0xbd268d28	-0.04066196
255	0xbd2a3629	-0.041555557

fc2.bias f4 [128]
0	0x3c7bc348	0.015366383
1	0x3c99e2ec	0.018784963
2	0xbd2d2f9b	-0.04228173
3	0x3d8a0b5f	0.0674045
4	0x3c7b3658	0.015332781
5	0xbd720c96	-0.059094034
6	0xbd8f2a26	-0.06990461
7	0xbd8c6a30	-0.06856191
8	0x3d6c3fe6	0.057678126
9	0xbc086750	-0.008325413
10	0xbd25da29	-0.040491257
11	0x3c8f2c70	0.017477244
12	0x3a7f0680	0.00097284466
13	0xbd2b0a35	-0.04175778
14	0x3c51d820	0.012807876
15	0x3c2f9ab8	0.01071804
16	0xbda4a971	-0.08040131
17	0x3d6be9ea	0.057596125
18	0x3c8f4a98	0.017491624
19	0x3c84eb80	0.016225576
20	0xbd310f42	-0.04322744
21	0x3d2527e6	0.040321253
22	0x3d73c2fe	0.05951213
23	0x3d268a9a	0.040659525
24	0xbd498505	-0.049199123
25	0x3c9dc524	0.019259043
26	0xbdb02f4b	-0.086027704
27	0x3cc863b0	0.024461597
28	0x3d7a43c6	0.06109979
29	0xbd290393	-0.041263174
30	0x3d808f5b	0.06277343
31	0x3c77fb08	0.015135534
32	0xbc9b388c	-0.018947862
33	0xbc0bf938	-0.008543305
34	0xbd20ec5a	-0.039287902
35	0xbca25b6c	-0.019818984
36	0xbd413fc9	-0.04717997
37	0x3c9d048c	0.019167207
38	0x3bf07ec0	0.0073393285
39	0x3c645528	0.013936318
40	0x3d969eb1	0.07354487
41	0x3d0fb938	0.035088748
42	0xbd7c6157	-0.061616268
43	0x3c84b004	0.016197212
44	0xbc04a740	-0.008096516
45	0x3da67a35	0.08128778
46	0x3d9feaf3	0.07808485
47	0xbd186fd7	-0.037216034
48	0xbd6d44ce	-0.057926945
49	0x3d138322	0.03601373
50	0xbd240b83	-0.04005004
51	0x3d98d113	0.07461753
52	0xbd2e574f	-0.042563733
53	0x3d89780b	0.067123495
54	0x3d188846	0.037239335
55	0x3d9dd30d	0.0770627
56	0xbcea99bc	-0.02863776
57	0xbd98a616	-0.074535534
58	0xbc66dac8	-0.014090247
59	0x3918c800	0.00014570355
60	0xbdaf104b	-0.085480295
61	0x3d9e40d3	0.07727208
62	0xbda2bb64	-0.07945898
63	0x3da4f393	0.080542706
64	0x3d96874b	0.07350024
65	0x3c84f3c4	0.016229518
66	0x3dad5fed	0.08465562
67	0x3d2b7c8e	0.04186683
68	0xbce6c282	-0.02816892
69	0xbc5bbb38	-0.013411336
70	0x3cec549c	0.028848939
71	0x3d0bb834	0.034111217
72	0xbda1875c	-0.07887146
73	0xbd8c99cd	-0.06865273
74	0x3d298c76	0.04139372
75	0xbd009dc6	-0.031400464
76	0x3d93d877	0.07219022
77	0x3d7130da	0.05888448
78	0xbcceb904	-0.025234707
79	0xbc0b2ed0	-0.008495048
80	0xbc7992d8	-0.015232764
81	0xbbb23d10	-0.005439408
82	0x3d98693b	0.07441946
83	0xbc57e170	-0.013176307
84	0x3c0136d8	0.007886611
85	0x3d90780d	0.07054148
86	0x3da03ab1	0.078236945
87	0xbd009d63	-0.031400096
88	0x3b4a79c0	0.0030895323
89	0x3bb7b090	0.0056057647
90	0x3d54feaa	0.05200068
91	0xbd8e5e07	-0.06951528
92	0x3d98d7fd	0.074630715
93	0x3d970329	0.073736496
94	0x3bec8c30	0.00721886
95	0xbd05329a	-0.03251896
96	0x3d990873	0.07472315
97	0x3da1a095	0.07891957
98	0xbdaf3815	-0.08555619
99	0x3d9f6a35	0.07783929
100	0xbcd25320	-0.025674403
101	0xbcba115c	-0.022713356
102	0xbd65deee	-0.056120805
103	0xbd71687e	-0.058937542
104	0xbd1e89d7	-0.038705673
105	0x3d2bd742	0.041953333
106	0x3cb73fc4	0.022369273
107	0xbcd494ec	-0.025949918
108	0xbd58be3a	-0.05291579
109	0xbd9031be	-0.070407376
110	0xbc25c578	-0.010117881
111	0xbcac18a4	-0.021007843
112	0x3cf45868	0.029827312
113	0x3a8e3e40	0.0010852292
114	0x3cc585a4	0.024111576
115	0x3d1b9472	0.037983365
116	0xbdab62e0	-0.08368468
117	0xbb24c5a0	-0.0025142208
118	0x3d61544a	0.055012025
119	0xbb266b80	-0.0025393665
120	0xbcb53d94	-0.02212409
121	0x3da26c65	0.07930831
122	0x3d0da132	0.034577556
123	0xbca20ddc	-0.019782
124	0xbda206c4	-0.07911447
125	0xbd437b37	-0.04772493
126	0xbc4f41e0	-0.012649983
127	0xbd9dda0b	-0.07707604

fc3.weight f4 [1, 128]
0	0x3d9afb41	0.07567454
1	0xbd82830a	-0.0637265
2	0xbda969d6	-0.0827214
3	0x3c222f18	0.009898923
4	0xbc1d70f8	-0.009609453
5	0x3d0e4684	0.034735218
6	0xbac10700	-0.0014726818
7	0x3c8228d0	0.015888602
8	0x3da9327f	0.082615845
9	0x3d91748d	0.071023084
10	0x3da28369	0.07935221
11	0x3d8dec85	0.06929878
12	0xbd78fdbe	-0.060788862
13	0x3d8edbab	0.06975492
14	0x3b4f99a0	0.003167726
15	0x3ca18654	0.019717373
16	0xbc5b7458	-0.013394438
17	0xbcae8274	-0.02130244
18	0x3b527d40	0.0032118112
19	0x3d86a555	0.06574503
20	0x3d29c33e	0.041445963
21	0x3cd34878	0.025791392
22	0x3bc486f0	0.005997531
23	0x3d99f26f	0.07516944
24	0x3d3cd88e	0.04610496
25	0xbd07ff4c	-0.033202454
26	0x3d54cbea	0.05195228
27	0xbd02cf8f	-0.031936225
28	0x3c2528b0	0.010080501
29	0xbd0fd9f4	-0.035119966
30	0x3c9452dc	0.018105917
31	0xbd9a42ed	-0.07532296
32	0xbd9ef96d	-0.07762418
33	0x3cf40e50	0.029791981
34	0x3a8449c0	0.001009278
35	0x3daeecb5	0.08541242
36	0xbca5d4d4	-0.020243086
37	0xbd3db3c3	-0.046314012
38	0x3c80fc44	0.01574529
39	0x3daf5ea7	0.085629754
40	0xbbe758b0	-0.007060133
41	0x3d892161	0.0669582
42	0x3d248316	0.040164076
43	0xbc4cfe90	-0.012511864
44	0x3c1003c8	0.008789964
45	0x3d58b986	0.052911304
46	0x3dac990d	0.084276296
47	0xbc4629b0	-0.0120949
48	0x3d4954e6	0.04915323
49	0x3d651376	0.055926763
50	0xbd615f6d	-0.055022646
51	0x3d67b19a	0.05656586
52	0xbb2b0ea0	-0.0026101246
53	0x3ca13ba4	0.01968176
54	0xbda4e47a	-0.08051391
55	0x3da8aecf	0.08236467
56	0x3cfbbe50	0.030730397
57	0x3cae80b0	0.021301597
58	0x3d7e4426	0.06207671
59	0xbd997295	-0.07492558
60	0xbdb01735	-0.085981764
61	0xbd7a8950	-0.061166108
62	0x3bca61d0	0.006176211
63	0xbc548808	-0.0129718855
64	0xbdb47a7c	-0.088124245
65	0xbd83e2a6	-0.06439714
66	0x3c5a0ab0	0.013308212
67	0x3bc312e0	0.005953178
68	0x3d3b5b36	0.045741282
69	0x3c635f70	0.013877735
70	0xbd279a4a	-0.040918626
71	0xbc786c58	-0.01516255
72	0xbc831524	-0.016001292
73	0x3d58c0aa	0.052918114
74	0xbd3a2a9c	-0.04545079
75	0xbd0dde08	-0.034635574
76	0xbcf37cf2	-0.029722665
77	0x3cf3850c	0.029726528
78	0x3d70228e	0.058626704
79	0xbd3cfdea	-0.04614059
80	0x3cfa2384	0.030534513
81	0xbd1f60d8	-0.038910717
82	0xbd2e828d	-0.04260497
83	0x3dade66f	0.08491217
84	0x3b206a80	0.0024477541
85	0x3ab936c0	0.0014130697
86	0x3d0c6bee	0.034282617
87	0xbc11a7e8	-0.00889013
88	0xbd4588fc	-0.04822634
89	0xbd9fd53e	-0.078043446
90	0xbd0427c7	-0.032264497
91	0x3c818a30	0.015812963
92	0xbd763593	-0.060109686
93	0xbda8e9d2	-0.08247723
94	0x3cef0f80	0.029182196
95	0xbd2d4d9a	-0.042310335
96	0x3cf825ec	0.03029152
97	0xbd0d1b7d	-0.034450043
98	0x3b7d9e40	0.003869906
99	0x3db3742b	0.08762392
100	0x3baa10c0	0.005189985
101	0x3d5eb342	0.054370172
102	0xbd9b3b45	-0.07579664
103	0xbc860854	-0.016361393
104	0x3cc6f618	0.024287269
105	0x3b9b01f0	0.0047304556
106	0x3c15e268	0.009148218
107	0xbcae51c4	-0.021279223
108	0xbd87d931	-0.06633223
109	0xbd04129c	-0.03224431
110	0x3d3e7996	0.046502672
111	0x3d43300a	0.047653235
112	0x3d605042	0.05476404
113	0xbacfe9c0	-0.001586251
114	0xbaba7c40	-0.0014227703
115	0x3c9c65a0	0.019091427
116	0xbb1128a0	-0.0022149459
117	0xbc7abbc8	-0.01530356
118	0x3d2e82d6	0.042605244
119	0xbd1ee2a6	-0.038790368
120	0xbcd03e60	-0.025420368
121	0x3c9585a8	0.018252209
122	0x3dae4499	0.08509178
123	0x3d875b2f	0.06609189
124	0xbda53567	-0.08066826
125	0x3cd1a254	0.0255901
126	0xbd5f1a1e	-0.054468267
127	0x3d9ae999	0.075640865
